current_model.pt (torch_old, 490165 bytes, 16 tensors)

lstm1.weight_ih f8 [204, 30]
000000 70 2e 01 61 4b 0c 91 bf 7f 7c 3b 24 6b d5 af 3f
       -0.016648462100688766 0.06217512910165456
000010 5b 3d 8e 71 13 0c aa 3f 45 37 05 8c 25 1f b4 bf
       0.050873382198114846 -0.07860026043382813
000020 8b e4 99 b9 45 3b a6 3f 65 64 71 69 76 85 c1 3f
       0.04342096224440536 0.1368854536874863
000030 70 18 3a 2f 10 2f 88 bf 99 04 a3 44 28 2b c6 3f
       -0.011808515969516459 0.1731920561924525
000040 1b 26 eb 6e 27 47 b5 3f b8 ca e2 03 ef d3 b8 3f
       0.08311697442982117 0.09698385090704675
000050 6a f0 93 af 85 64 6f bf a1 f4 b8 37 5f 10 c8 3f
       -0.0038321124126224253 0.18799963208031037
000060 b6 26 e8 8f 9c a0 c4 3f bb 11 62 d6 89 66 bb 3f
       0.1611514761610146 0.10703336223566044
000070 8b c3 e1 ab 3c 3a b7 3f 1d 89 8c 8a f6 09 c6 3f
       0.0907323760636826 0.1721790482052449
000080 14 ae 64 7e 7a f7 9e bf d0 84 63 b2 7a da 9d bf
       -0.03024093052333228 -0.029153744829163497
000090 c3 a5 99 0f 7c 29 90 3f 73 5e 4c 33 7e 71 c3 3f
       0.015783251239928974 0.15190103058624835
0000a0 80 7e 3f 3e 63 a3 a1 bf 56 9c bb d2 ad 5d aa bf
       -0.03444967398513388 -0.05149596402571237
0000b0 b8 6d 2f e9 97 e3 9c 3f 6d 86 57 7c 07 f4 c4 3f
       0.02821194992780615 0.1636971814287337
0000c0 c4 dd 22 f8 df dd b1 3f bb a3 ce ec 8f 7d ce 3f
       0.06979179199230773 0.23820685446596976
0000d0 c8 f8 e5 9f b9 0d c3 3f 7f ea ac 40 02 1d c0 3f
       0.14885635669265285 0.12588527830105886
0000e0 f9 3b 71 2d 7f 66 c0 bf dd 4a c3 78 a8 49 9b 3f
       -0.1281279537092528 0.02664817082479486
0000f0 36 de 82 13 4c cd a2 bf ca 7c 22 aa 42 d2 b3 3f
       -0.03672254312681071 0.07742706922225576
000100 1b 16 fe 1c 1a 58 ab bf cc de bd df 7e c4 c4 3f
       -0.053406539954306186 0.16224656987082253
000110 c4 9a bd 07 69 a4 b4 3f 1f a7 11 4b 94 73 58 3f
       0.08063370169621026 0.001492399995436995
000120 84 fe e0 8d c8 f4 93 bf 68 a4 b6 a9 57 09 a5 bf
       -0.019488462123489217 -0.04108690211007443
000130 f2 91 ee 1a 35 bc ce 3f 31 47 0d 25 71 2e a7 3f
       0.24011863532099614 0.045276199124272394
000140 92 f6 54 f3 d3 a4 ba 3f 30 98 ca c2 b6 da 9c bf
       0.10407757464141756 -0.0281780773535944
000150 f6 5a 8f df 37 b1 a2 bf 70 be 61 9e 98 4b 80 bf
       -0.03650831798556979 -0.007956688245229077
000160 95 75 e7 19 3e 92 c5 3f ea 12 3b 48 f4 f3 c0 3f
       0.16852546944475635 0.13244489218609284
000170 71 0f 57 fc cc f9 c6 3f c4 e5 8a a5 46 90 b6 bf
       0.17949831315319956 -0.08813897649351704
000180 7b 86 75 29 21 f4 c0 3f 71 70 85 7e 6b 9a b2 3f
       0.13245024227494526 0.07266876067063933
000190 db 3e ff 9b 93 37 71 bf 8d 4e 02 79 fb 6b c5 3f
       -0.004203392600132107 0.16735785874026413
0001a0 c1 35 f5 2c a4 7f 92 bf 38 f1 25 e0 63 d3 ca 3f
       -0.01806503796006154 0.20957611508118545
0001b0 c4 bb 6a 4e b3 09 93 bf d9 1d 63 18 7b 6f ca 3f
       -0.018591691647710254 0.20652712527065267
0001c0 f9 82 c8 cc bc b0 c9 3f f0 f1 52 90 4f 0b c1 3f
       0.20070610045606666 0.13315767809935108
0001d0 ff e1 30 2e 39 1f d2 3f 5f d4 07 e3 57 42 c3 3f
       0.2831557227214318 0.15046213708379505
0001e0 1a 0f 86 37 9e 5c b4 3f be 9c 20 43 5a ff 99 3f
       0.07953823905523585 0.025388155314570275
0001f0 3f 69 6e 0d d6 4d bb bf 1d 90 41 18 15 41 bb bf
       -0.10665643527901113 -0.10646182863416738
000200 ac c4 7f f5 97 03 b1 3f 49 fa f1 fe d3 b4 b6 bf
       0.06646108382826083 -0.08869671797035851
000210 76 43 35 14 21 f7 90 3f a0 53 5e 21 ab bd a6 3f
       0.016567723139192712 0.044415805648134965
000220 2a 73 70 43 bd 0b b8 bf 8b 23 8c 00 f8 f7 ab bf
       -0.09392912765947573 -0.054626226488898665
000230 f5 ff 3b 95 80 79 bd bf 05 67 b2 ae 30 05 9b bf
       -0.11513522761742918 -0.026386986410762443
000240 a5 9e 3b 83 47 1d 97 bf b0 55 e1 24 60 e3 bc bf
       -0.02257262934190742 -0.11284447574992984
000250 65 76 81 e9 1e d1 a0 3f 76 f0 5d 9f 0a 1c c4 bf
       0.032845464710345586 -0.15710575849141478
000260 54 8f 2d 4d a3 9a b4 bf 88 79 c8 f1 e0 9e b7 bf
       -0.08048458704211942 -0.09226804640682051
000270 e3 13 f5 f0 a0 b7 bc bf c8 66 33 ae 12 b4 a1 3f
       -0.1121769512438529 0.03457697273706867
000280 68 43 69 98 09 b4 c2 bf 21 67 15 aa 5f 5a b4 bf
       -0.14611930791809447 -0.07950399305755386
000290 48 ad e2 6a d2 ac a2 bf c3 ce fb 8f c7 14 b3 bf
       -0.03647477679018124 -0.07453582062936008
0002a0 7d f4 77 10 a0 cc b8 bf 5e a6 19 34 8c e5 b9 3f
       -0.09687233354630283 0.10115886947610295
0002b0 76 d2 92 1f 0b ed b2 bf 92 d3 a1 ca 3f d4 af bf
       -0.07392949601018892 -0.06216620777642058
0002c0 03 cf 74 51 cc 82 ab 3f 53 19 80 11 9d 09 c2 3f
       0.05373228544558908 0.14091838221083694
0002d0 0a 09 cd b0 43 32 c9 3f 52 4f fa 23 95 44 b0 bf
       0.19684644825799352 -0.06354648712504954
0002e0 b4 15 a6 9b 08 e2 c0 bf 73 d4 14 ba e8 12 b7 3f
       -0.1318979988101724 0.09013227980615728
0002f0 78 5e 56 3d 1d c7 b6 3f 00 a9 cb 9a fd ae 8b 3f
       0.08897574183935741 0.013517361914143766
000300 83 bb 89 1b dd 4d b2 bf cd 6f bb a8 ea 4c be 3f
       -0.07150060579600219 0.11836115474164828
000310 1e 66 36 79 68 54 a2 bf a9 39 0a 0a 45 72 ab 3f
       -0.035800232693145015 0.05360618350561037
000320 bb 01 a4 ed 68 42 70 bf b6 95 20 b6 b7 cf b3 bf
       -0.003969583393200467 -0.07738826939074425
000330 d0 9d f1 56 ca 36 b1 3f 39 8d 67 dc a8 a4 c2 3f
       0.06724228499080387 0.1456500126069871
000340 a2 10 c8 22 1f e0 ae 3f 3e 6a 87 1d 15 05 c4 3f
       0.06030366229609398 0.15640510503620136
000350 5b 38 1b cd d1 95 ba 3f 0b c0 88 73 dc 28 ab bf
       0.10384856469610908 -0.05304612074212408
000360 34 ea 55 5c c0 26 b2 3f 69 0e a8 68 bf ff 8c 3f
       0.0709037995747302 0.014159675008165356
000370 53 d3 a9 ef 58 fd c5 3f be 7a bc 0b 39 79 b0 bf
       0.1717940492850639 -0.06434971367387285
000380 88 c9 71 8e 0b 8b ab 3f 66 1a d4 17 60 17 8a bf
       0.053795205248110156 -0.012739897467793426
000390 47 4c e2 07 08 39 ab 3f cf 43 00 51 15 92 cd 3f
       0.053169489824676 0.23102060752037665
0003a0 2e be 92 5d e4 ce c0 3f 18 03 54 ee 6c ca ce 3f
       0.13131384438519106 0.24055253636472496
0003b0 a3 fc 75 24 1f bc ad 3f c9 30 36 38 73 81 b4 bf
       0.05807587928847482 -0.08010025141101375
0003c0 0e 24 f2 e0 8d ee af bf 45 42 bc e9 11 36 9b bf
       -0.06236689921303916 -0.02657344807727415
0003d0 d9 52 e4 ba 84 83 c6 bf da 45 71 84 c9 09 c6 3f
       -0.1758886253889134 0.17217368094365676
0003e0 aa 25 b2 e4 6c d9 94 bf 3c f3 b7 67 54 3f 80 3f
       -0.020360661943902215 0.007933291831244575
0003f0 13 1f e9 8a 55 fb ab bf 38 5b 9f f2 aa 4d c4 3f
       -0.05465190239607245 0.15862023207474762
000400 b7 f5 3b ee 4b 27 b3 bf b7 61 d0 a2 26 fe 82 3f
       -0.07481836859002199 0.009273816913307848
000410 7d e7 d4 b3 7d d3 6c 3f a2 f2 93 e6 63 56 a7 bf
       0.003518815529472029 -0.045580980202406765
000420 32 70 a9 fd 0f 12 b4 3f e2 c5 5f fc aa 47 c3 3f
       0.07840061133305268 0.15062463114695307
000430 01 ce ca 4a b2 82 ab bf 20 df 3e 60 5b 9d 7b 3f
       -0.053731509809406226 0.006741864144650639
000440 d6 40 f1 de fc e8 be 3f d7 72 b5 3e c0 85 a7 bf
       0.12074261134080486 -0.04594231381881791
000450 16 6f 85 90 ab 46 7b bf d6 c7 73 86 1f 25 c6 3f
       -0.006659193204850108 0.17300790848781727
000460 54 77 51 5e 5f 57 c2 3f 4c 8a 0c 41 73 84 90 bf
       0.14329139809972935 -0.016130257458949068
000470 da 84 cc 4b d0 de b1 bf 77 ca f7 d7 f8 ff b0 3f
       -0.06980611658629546 0.06640582344679467
000480 2d df 41 fd c1 3c b0 3f 7e d5 36 55 64 0c ce 3f
       0.06342709000625453 0.23475317154740688
000490 d6 51 22 49 af 6c c8 3f 13 97 e5 bf f9 89 c3 3f
       0.19081679411887248 0.15264818067515104
0004a0 77 cd 47 3b 5f e3 41 bf 8b ff 48 81 0c e3 92 3f
       -0.0005459036825058845 0.01844424761861733
0004b0 ac 1c 9f 92 95 85 c6 3f 71 48 6b ee be 30 98 bf
       0.17595166835073905 -0.023623450567193453
0004c0 21 a8 44 d5 a7 c5 a3 bf 34 e6 60 8e 30 2f c2 3f
       -0.03861736753818002 0.1420651145179349
0004d0 03 8d 8d 04 ca 6a 77 bf 85 ab 87 6e 3d 5a b4 3f
       -0.005717076427433246 0.07950195263371825
0004e0 1a 22 3d bf cd 55 92 3f b7 14 40 08 d7 58 c4 3f
       0.01790544013718618 0.15896118071410623
0004f0 62 15 4f ed 66 bf c6 3f 8d ba a3 70 fd 70 bb 3f
       0.17771612727498637 0.10719284057607066
000500 e7 2c a0 c4 82 68 ba 3f b0 01 e5 12 f4 c9 a2 3f
       0.10315720844680563 0.03669703226705978
000510 33 db e8 bd b7 b7 cc 3f 24 aa 2d 17 da c3 bb 3f
       0.22435662053040914 0.10845721307638506
000520 28 27 0a 78 81 92 a7 3f 29 ba 5d 55 fd eb a5 3f
       0.04603962507560616 0.04281608264033238
000530 30 e3 e2 b8 f8 7d af 3f 51 5f 4c 4e 7b 7e b2 3f
       0.06150796181595408 0.07224245702343281
000540 58 8f 72 50 20 5b a7 bf f8 ca 52 b0 38 a6 89 3f
       -0.04561711294198173 0.01252407348724692
000550 87 e8 6d f6 36 a4 c9 3f 54 e1 0e 9b a4 8e b1 3f
       0.20032393486673447 0.06858280931090138
000560 ff 2c df e0 08 cc b0 bf 25 c6 8e 74 7c 45 d6 3f
       -0.06561332216294956 0.34799109823788604
000570 d9 1a 3e 6d 7c 23 a7 3f 0d f4 92 88 d2 0a dd 3f
       0.04519261201408193 0.45378554665859455
000580 66 1d af 9b 77 39 a0 3f 24 fd a5 08 7f 4e de 3f
       0.03168844008865328 0.47354102940149034
000590 6a 32 d1 c0 a8 0a bb 3f ab 70 af 44 d2 60 cb 3f
       0.10563139636469435 0.2138922534348969
0005a0 88 1f 75 bb 22 22 ca 3f 12 6d d5 af 67 bc c4 3f
       0.20416673806380126 0.16199966512326874
0005b0 dd 36 7c 5c f3 db ac bf 7d d7 35 bf 5a 03 b0 bf
       -0.056365590133379696 -0.06255118530483901
0005c0 ef 9d af e8 00 c2 c4 3f 94 96 e1 46 6d 68 b9 3f
       0.162170518509114 0.09924967747209684
0005d0 4b f7 74 6d 9f f6 95 3f 43 d4 76 82 20 10 c6 3f
       0.021448603683203598 0.17236715669938193
0005e0 82 3f 29 c9 b6 76 a9 3f 16 c0 9e 44 06 92 bc 3f
       0.0497338409955992 0.11160315680786001
0005f0 16 64 40 47 ec 57 c9 3f 16 1a 9d 61 60 15 7f 3f
       0.19799569586828686 0.00758874558397917
000600 84 e7 ae 9b da 43 ba 3f 82 64 6c 20 42 9e b9 3f
       0.10259786892757289 0.10007108012759328
000610 1f c9 88 c5 a2 26 a0 3f eb 96 b2 49 6f 11 9c bf
       0.03154476796443561 -0.027410258172173945
000620 8a c8 11 a9 81 92 ae 3f 18 d3 f8 4a b7 68 c4 3f
       0.059711505783426835 0.15944567833653234
000630 a0 83 f0 f9 ec b0 b3 3f 37 54 f2 2a 99 39 71 3f
       0.07691842176474362 0.004205320655406067
000640 04 0f df 29 40 3f a5 3f 4b 40 60 79 af c7 76 3f
       0.04149818907856509 0.005561528631020061
000650 57 4b 10 d4 94 e1 bb 3f 65 8d b7 de 63 65 ce 3f
       0.10891084840140529 0.23746918082097604
000660 df 8d 92 26 dd a7 9e 3f 92 8f 9c 09 5a 66 8b 3f
       0.029937224845196894 0.013378814142533977
000670 bc 91 a7 1a 78 55 80 3f a8 b1 39 6a 01 6c b4 3f
       0.007975519479210706 0.07977303355591536
000680 42 9c e6 a7 a6 76 a0 3f 0f f6 99 08 4e 31 9b bf
       0.03215523528643206 -0.02655527045725675
000690 bb 87 3b 56 89 a1 b9 bf f1 38 bf 33 91 78 8f bf
       -0.10012110095297448 -0.01536668242615888
0006a0 d2 49 8f 14 56 7d c9 bf 52 19 25 f2 82 49 bc 3f
       -0.19913745883839212 0.11049669658414032
0006b0 4e 1d 94 06 ae 75 9f bf 50 90 16 74 77 ff bf 3f
       -0.03072235026504915 0.12499186119254202
0006c0 1d df 6f 5f 71 27 9f 3f 9e b4 4e 13 0f 63 ae bf
       0.03042390007973871 -0.059349509341111814
0006d0 93 2c 85 a0 7f 11 94 bf 67 4b 58 17 52 07 b4 3f
       -0.01959800164449328 0.0782367045397173
0006e0 c8 a6 b9 dc 4d e8 95 3f ea 29 31 4f d0 5d 88 3f
       0.02139398250293459 0.011897685448407597
0006f0 f5 72 40 eb 3b 81 81 3f ea 76 71 ae a8 e3 af bf
       0.008547275654615197 -0.062283774656618565
000700 7f e2 a1 7f 3e 61 8a bf 46 f6 8c 60 d2 18 b2 3f
       -0.012880790967970455 0.07069125039284882
000710 56 13 87 04 4a bb c2 3f a4 d0 a5 91 a9 81 c5 3f
       0.14634061070514787 0.16801948177056147
000720 5d 51 b9 6e b0 04 a8 bf e0 e9 ef 3a d2 dd ab bf
       -0.046910775676823425 -0.054426736540296394
000730 00 47 8e 98 9f 9e bd 3f e4 2b b1 35 f4 60 c1 3f
       0.11570165133005261 0.1357712995689716
000740 aa 5f 92 e8 3f a2 99 bf e5 c4 e6 b1 47 a7 ba 3f
       -0.025032995767645318 0.10411499112412377
000750 87 6b e2 8b 97 63 a1 3f d4 53 63 68 22 f9 d2 3f
       0.033962951493967934 0.2964559573568384
000760 95 c8 b2 23 47 3a c7 3f ff 1b 75 10 34 5f a5 3f
       0.1814660000141585 0.04174196911713323
000770 fd 04 84 4d 2b 9c a3 3f dd a4 65 f5 dd 8a a0 bf
       0.03830085107075296 -0.03230947132653637
000780 6c 00 0f c8 0a c1 c8 3f a4 9c 9e 9d 46 96 ce 3f
       0.1933911778305658 0.238961054766354
000790 68 18 03 4a 1f 12 c3 bf 8c 79 a8 99 c2 73 95 bf
       -0.14899054635879172 -0.020949402454897334
0007a0 5a 6d 19 ad 7b fa a6 bf 40 bb 91 62 86 d6 a2 3f
       -0.044879784469879794 0.03679294541585998
0007b0 b3 46 25 7f 19 b6 b7 3f c2 f4 fb d4 2a b6 92 3f
       0.0926223693288886 0.018273038148426186
0007c0 eb df 03 08 e8 62 b7 3f 1e 00 50 58 1c f1 a6 3f
       0.09135294147188204 0.04480827882798642
0007d0 48 cc b0 84 3f 40 b2 3f 84 bd e2 01 c8 ae c4 3f
       0.07129284848706263 0.16158390132975964
0007e0 0c 46 b7 76 36 48 aa 3f 45 9f 05 f5 76 72 c4 3f
       0.051332189552010105 0.159743184699659
0007f0 90 4c 8e 2c 56 60 ca 3f 5d 82 7f 1d 95 7b c0 3f
       0.2060649602468385 0.12877143802963334

lstm1.weight_hh f8 [204, 51]
000000 cb 1d f6 70 5f eb 53 bf 37 f8 9a 18 9a 2f c2 bf
       -0.0012157852214346062 -0.14207769586022476
000010 12 94 7b 74 af 2f c3 3f 9e 35 ba 71 0d 8b b0 3f
       0.14989274203904351 0.06462177301928881
000020 bf 38 60 b5 29 ee 66 3f fc 00 d1 ed 00 7f a0 bf
       0.0027991118067865746 -0.03221896079094397
000030 3d 59 dd eb 7c 01 95 bf eb c9 16 35 e1 dd a0 bf
       -0.02051348867038282 -0.03294280789431866
000040 4f 04 a3 39 b1 a9 c8 bf 27 b4 b5 5c c4 d4 84 bf
       -0.19267859758659475 -0.01017144592216297
000050 4e 32 0e c6 b7 04 c1 3f 6c ce 85 8e 1d 50 ae 3f
       0.13295647783924597 0.05920498242167302
000060 3d 1d c2 cd ab 6c a3 3f 34 5a 8c fd 1b ff 47 3f
       0.037938469759917194 0.0007323156997667891
000070 4d 67 72 48 77 f8 b8 3f e7 60 77 51 39 05 62 bf
       0.09754128950808401 -0.0021997565743100303
000080 1d 65 74 06 33 07 bd bf 24 8d fb d8 7c e0 92 3f
       -0.11339110286316552 0.018434477561538945
000090 b0 b9 14 b7 dc bc a0 3f e8 71 e8 34 8a 7b b5 3f
       0.03269090399622898 0.08391631881426742
0000a0 95 1b 0b 7a e5 8a 7c bf fb 5e c6 25 f4 db bb bf
       -0.00696839942310747 -0.1088249771331639
0000b0 12 aa 00 29 ad f0 b2 3f 35 6b 20 75 6f 96 90 3f
       0.07398493052520674 0.01619886543640377
0000c0 5f 62 ea 4a d4 75 c1 bf f3 32 af 5c 72 21 bb 3f
       -0.13640836389528752 0.10597910654832869
0000d0 73 99 22 34 7f 94 9b 3f 1a 94 14 f1 eb 39 ad bf
       0.02693365817744948 -0.05708253209949295
0000e0 f6 eb 76 12 e6 1d b8 bf 1c 45 00 ba 6f d9 bd 3f
       -0.0942062182502211 0.11659906664887781
0000f0 16 30 8f 6c 0d cc b5 3f 79 32 b0 02 03 dd 7f bf
       0.08514484310507017 -0.007779132613916156
000100 65 01 c7 77 2d 62 b0 3f 03 1a ae 4b d8 12 8a 3f
       0.06399807142498089 0.012731256303379906
000110 08 f7 29 b1 17 fa 59 3f d9 21 5c 5f 72 b7 ab bf
       0.0015855056159632137 -0.0541339627653234
000120 6f 3d 97 c7 fd 96 c2 3f d7 ea fd c8 01 0e b0 3f
       0.14523288961070643 0.06271372944858498
000130 b8 6c 70 96 12 c0 ac bf da 58 b7 58 00 1c b7 bf
       -0.05615289770522608 -0.09027101674959984
000140 91 2e b0 82 54 7f b2 3f 5e 5d 45 1b 66 1a a4 3f
       0.07225540342931881 0.039263907269453155
000150 56 aa 8d 0a 69 2f c6 3f 95 ea 8e 99 19 31 ae bf
       0.17332184806157852 -0.05896835326662601
000160 f5 ac 18 94 2e 76 be bf 89 cf 0b 68 2a 85 a1 bf
       -0.11899081340441227 -0.03421909828276088
000170 7d e1 1f 69 06 0b ab bf 99 3a f5 ef 7a af be 3f
       -0.052818489391884584 0.11986511572215831
000180 1e 52 bb 98 35 9d aa 3f 81 bf 07 f1 3a 99 7f bf
       0.05198066224480534 -0.007714491119699463
000190 da 93 d3 7d f2 32 a4 3f 01 5b a1 3d 72 22 b5 3f
       0.03945119653670988 0.08255685810705062
0001a0 a9 8c 09 cd de 74 b1 3f fc bc b0 90 c2 c5 bb bf
       0.06818954950135726 -0.10848632843475409
0001b0 44 3c 61 13 17 7b ad bf 28 23 36 82 4e cd a7 bf
       -0.05757972823686733 -0.046488240618663135
0001c0 11 29 aa df fe ea b6 bf cf 99 c3 5a c4 86 c3 bf
       -0.08952324829639148 -0.15255026275481362
0001d0 e6 76 14 70 ee c4 9a 3f eb bf f4 54 38 36 c5 bf
       0.026141858664337735 -0.16571716449971005
0001e0 ad 7b e5 d9 f6 a9 c6 3f 6e 93 34 cc 72 fb 9f 3f
       0.17706189765428118 0.031232637132365175
0001f0 1b 4c d8 58 06 6d 8a bf 49 ce 82 bf 58 c3 b3 3f
       -0.012903260790187379 0.07719950366554786
000200 d8 3e f5 4c a2 7c ba 3f a3 56 0b 0c 3c 3e b6 3f
       0.103464263714382 0.08688712400484148
000210 0c cb c8 2b a4 fd b1 bf d9 83 c2 7a ac 93 bf bf
       -0.07027650898889365 -0.12334707257333778
000220 97 e8 e4 80 b8 e6 a5 bf 07 0d 96 04 40 62 74 bf
       -0.04277588437476359 -0.0049765110683239805
000230 5e dd f2 57 b0 d7 a9 bf 79 af 05 7d d9 e4 b0 3f
       -0.05047370027153407 0.0659919672231676
000240 81 78 d9 e7 bd 86 9c 3f 3d e9 d1 58 f5 35 af 3f
       0.027857749248476175 0.06095854481914607
000250 72 a4 55 55 e3 0e b9 bf 01 02 72 57 14 39 7a 3f
       -0.097883423169735 0.006402091464338345
000260 7b 61 54 53 73 2a a3 bf 66 9c eb 50 37 0f a6 bf
       -0.037433246538230734 -0.043084839466069266
000270 8e c9 d7 79 4f 9c bf bf 97 2d 86 04 53 94 8e bf
       -0.12347885822945256 -0.014931343627515399
000280 7a d9 f7 0f 75 dd a1 3f c7 2b 79 4f 28 84 c3 3f
       0.03489270992206435 0.1524706256917325
000290 12 90 13 2b 1f 46 c3 bf 9c b9 6b cf b6 65 ae bf
       -0.1505774460157459 -0.059369767017290104
0002a0 9c 70 89 d5 f2 50 b8 bf e2 04 41 3f c4 d7 af 3f
       -0.09498517716696359 0.062193043443139265
0002b0 e0 7a 54 1f 9d 8c 98 bf 96 49 ac bc 75 26 b4 3f
       -0.023973898923140946 0.07871185165666925
0002c0 9d 8a c0 87 71 70 59 bf 38 24 b6 b1 59 5d bc 3f
       -0.0015526875204236242 0.11079941357287815
0002d0 1c 7b 10 29 ea c7 b8 bf 95 85 44 71 aa bc b7 bf
       -0.09680045607136062 -0.09272256150554477
0002e0 b0 06 6e 40 7d 5c ae 3f 82 89 eb 7c 41 55 c2 3f
       0.05929938708778815 0.143226800914885
0002f0 59 ca ad 77 18 49 a4 bf cf 5d 51 36 a6 24 85 3f
       -0.039620174988972585 0.010323809178017477
000300 f8 41 e6 01 e5 a3 c1 3f b1 5b 98 58 db fc 92 bf
       0.13781416504617972 -0.01854269722215535
000310 b7 43 71 2b f8 d0 a0 3f 93 53 15 69 6b 16 a0 bf
       0.03284431009581772 -0.03142104776148993
000320 17 d8 3e 25 6c 6b b1 bf e8 74 16 ee 6c 3d 93 3f
       -0.06804538640321343 0.018789007217141412
000330 a7 cb 2c fb da 87 bc bf c0 e8 06 d7 43 04 b1 bf
       -0.11144798881723138 -0.0664713287323222
000340 90 ac b8 5b 4e b4 a4 3f 9c 94 47 62 c1 ad b6 3f
       0.04043812627454557 0.08858879708675932
000350 94 10 4d 1e ff d8 a2 bf bb d9 e5 91 c0 90 8b 3f
       -0.03681180233846351 0.013459686710786003
000360 44 20 d7 32 41 87 ad bf 4c 1a 4a 6e 5b a7 93 bf
       -0.05767253633126804 -0.019193104368719724
000370 7d fe e5 18 32 ef bf 3f 72 3a de a4 9a ef b3 bf
       0.12474358661529013 -0.07787481808757393
000380 d6 49 d3 d5 1b 50 c3 bf 7f 76 61 2c ee 3d 9c 3f
       -0.15088222447100347 0.027579995592864833
000390 78 55 e4 a8 c3 30 c3 bf 76 1a 28 ee 20 fe bf 3f
       -0.14992566820789555 0.1249714452206748
0003a0 9a 6d 80 23 5f f2 b9 3f 09 d3 44 d0 0d 58 a1 3f
       0.1013545476602559 0.033874923394625674
0003b0 b8 1f 01 a2 56 c8 c9 bf f8 08 d6 64 f6 3f bb 3f
       -0.20142634306307428 0.10644473993128034
0003c0 4e e6 e6 14 86 bb b5 3f 6e f0 7e e3 c8 e8 7d bf
       0.08489263544370226 -0.007302078934966356
0003d0 d0 eb 2c cf 1f 98 9b bf b0 d1 91 eb 30 4b a4 bf
       -0.026947495479571704 -0.039636162525229834
0003e0 d5 8c 07 58 a2 de 8f bf d4 af ae 67 2d 50 b8 3f
       -0.015561359702536507 0.09497340947444793
0003f0 25 09 fb 42 d4 a3 bc 3f cd cf fb 41 08 91 b7 bf
       0.11187483439701802 -0.09205676661423397
000400 74 71 d5 a8 5d a5 b7 bf 6b 8d 75 ad 1a 01 a3 bf
       -0.09236703273695018 -0.037117799448220655
000410 e1 ef 74 f5 14 dc c8 bf 52 f6 13 7f 78 01 c0 bf
       -0.19421636567301362 -0.1250448818681656
000420 42 cc ea 81 55 2e b7 3f 6e ad e9 a5 91 fe c0 bf
       0.09055075094038137 -0.1327688274499041
000430 39 25 9c 11 51 d4 9a 3f ea 9a ae e1 13 c7 a4 bf
       0.02620054883940279 -0.04058134202869275
000440 bd 5c a7 e7 be 19 c3 3f db 89 8e 5c 9b aa a3 bf
       0.1492231970903272 -0.038411002205311205
000450 38 be 3b f9 01 77 ad 3f f1 2b 38 4e 0a 38 90 bf
       0.05754858176612426 -0.015838776611456443
000460 77 cf af 01 b1 92 8a bf c1 c3 74 6f ef ea 53 3f
       -0.01297510420224744 0.001215680907830072
000470 f6 1a b5 6a 49 97 a1 bf 34 2b b2 1e 03 09 80 3f
       -0.03435735156613433 0.00782968938280746
000480 5b f5 e8 37 9d 76 9c bf f4 90 8c 24 26 be b9 bf
       -0.027796227014041146 -0.10055769340812387
000490 e6 a2 42 b6 11 18 bd 3f 17 e4 a9 cd 59 a3 a1 3f
       0.11364851665224371 0.0344493926576847
0004a0 69 f8 a3 57 42 94 b6 bf ee ca 5e 70 f8 25 c0 bf
       -0.08819975509320134 -0.12615876662092468
0004b0 50 93 90 83 d0 16 c0 3f 12 5d f2 7a 77 61 b3 3f
       0.1256962435155864 0.07570597411755767
0004c0 b1 d3 26 88 b2 71 9d 3f cf c4 19 4a ac 0f 81 bf
       0.028754033622778234 -0.008330675135967884
0004d0 d0 a8 65 b7 8d 8f c0 bf 12 ad 35 3b 84 61 b9 bf
       -0.12938090758263465 -0.09914423413799892
0004e0 93 e4 dd 30 23 d4 c2 bf eb 6f bf 6a c0 6d 9f bf
       -0.14709892164299684 -0.030692106738442176
0004f0 07 a8 00 05 19 b8 92 3f bb 85 78 67 5f 9c bb bf
       0.01828040211709239 -0.10785480762617443
000500 fc 3d f1 41 21 a9 bf 3f 30 80 b4 bb c0 22 b8 bf
       0.12367446765824036 -0.0942802866234167
000510 0c 67 70 14 88 d7 c0 3f c7 e1 e4 7b 94 18 b7 bf
       0.13157750127793866 -0.09021881127126284
000520 04 c7 fd 67 cc bb a6 3f 6d 97 f2 87 e0 75 c6 3f
       0.04440153855729359 0.17547232282702954
000530 6f d9 f3 39 55 5a a3 3f 7d bc f7 e8 57 91 a5 3f
       0.037798560451778644 0.04212450713009106
000540 e4 5f a3 a1 cf 66 b3 3f 8b ac f3 f8 0f 71 c5 bf
       0.07578752228016544 -0.16751289039470793
000550 2b b6 1d ea 2d df bb 3f d4 10 2e 04 ae 1c a4 3f
       0.10887419667934554 0.03928130913758002
000560 59 7f c9 0f ee 03 9c 3f 76 71 9b 28 25 02 94 3f
       0.02735874148709114 0.019539433101145552
000570 7c 16 4b f3 39 9f a5 bf 05 8f bd fa 61 70 9a 3f
       -0.042230425785914044 0.025819331101401683
000580 57 40 f2 61 21 14 aa bf 31 4e a8 34 33 42 af bf
       -0.05093483276971316 -0.06105194108763746
000590 b5 10 a3 52 b1 00 93 3f a5 94 6b ec 97 d7 b2 bf
       0.018557329815636254 -0.07360219499567451
0005a0 10 6d df e8 6e 50 89 3f 04 9e 9d f2 59 17 a4 3f
       0.012360445481979926 0.03924065672509516
0005b0 3b ec 0e d7 dc 3a b9 3f b3 07 a7 2c b9 55 b9 bf
       0.09855442285963616 -0.09896428432605724
0005c0 d7 a7 ba 54 16 ab 94 bf 4a 37 68 ca 7b 6d c1 3f
       -0.020183895989852232 0.13615367301138753
0005d0 70 b0 21 03 04 65 a1 3f 81 6b 10 83 66 af 97 3f
       0.033973813421511845 0.02313003706886319
0005e0 09 75 92 23 4f 4a c0 bf 3e b5 0f 42 97 ee 9b bf
       -0.1272677348796736 -0.027277339369836222
0005f0 64 58 26 e9 c9 0b a6 3f e5 49 55 5e 10 75 b2 bf
       0.043058690748851075 -0.07209875395827899
000600 b2 67 5a 86 80 6e c5 bf 64 e1 4e 34 03 0f b3 bf
       -0.16743475494587085 -0.07444782282880663
000610 a9 38 79 79 fb e5 a3 bf 4d 2e d3 9b 91 44 c7 3f
       -0.03886400087195458 0.18178005322112015
000620 91 73 92 6f 08 80 c0 bf ca fc 49 b8 6e 69 46 bf
       -0.1289072556291129 -0.0006839552521141986
000630 37 94 1f ab 50 1d c3 3f 51 e0 2d 72 9b eb a3 bf
       0.149332126194311 -0.03890691536702263
000640 65 57 70 47 2f ad b5 3f 70 52 a9 5f 2c 44 a1 bf
       0.08467383855926654 -0.03372324626676437
000650 0c 70 cd 4c 22 9b a5 3f cf ac 62 00 5a 18 91 bf
       0.04219920337229163 -0.01669445636131855
000660 60 f9 37 3a 79 88 76 3f ec 44 89 b6 f0 4f a0 bf
       0.0055012450643502075 -0.031859895975353186
000670 42 a4 6f 20 7d 43 bb bf 17 a2 9a 30 cf fb b1 3f
       -0.1064985469999025 0.07024855553266494
000680 77 36 b4 b9 1f 92 c2 bf 73 1d a2 24 52 7f ab bf
       -0.14508434836936931 -0.05370575616057751
000690 e6 74 34 fe aa be 7c bf 98 30 6a 31 f7 61 b9 3f
       -0.0070177726186362085 0.09915108639160264
0006a0 2f 92 2e 9c 4c 0f 9f bf 87 78 4f bb 2e bb be 3f
       -0.030331799538219236 0.12004367897995581
0006b0 fb 7c 30 84 9c b5 b9 3f e4 1d 30 62 e8 dd 8d bf
       0.10042741992264219 -0.014583411690195676
0006c0 20 a0 1e 74 aa d9 a3 bf 14 ec 11 a5 78 1d 77 3f
       -0.03877003352619135 0.005643340367096367
0006d0 0f ce 46 56 c9 99 8f bf e3 37 f3 b3 67 a7 a0 3f
       -0.0154300431684993 0.03252719947487017
0006e0 94 fb 7d 57 38 09 bb bf 17 01 ac 30 3a 11 c1 3f
       -0.10560943733251654 0.13333823563153466
0006f0 1a 84 eb 94 97 63 85 bf 09 8c 31 9e 96 8b c5 bf
       -0.010443863136460552 -0.1683223984174165
000700 da be f7 1b b1 0a c6 3f 59 01 6a 74 90 72 99 3f
       0.1722012888490017 0.024851090531684637
000710 28 61 d7 55 65 af aa bf ae bf b4 20 07 85 c3 bf
       -0.05211941407077553 -0.1524971875855931
000720 ec 05 01 82 c7 6b aa bf c3 11 0e 6c 6d e3 b1 3f
       -0.051603541011456006 0.06987651718197356
000730 ee 34 97 03 6b e5 c2 bf 0d b0 f2 bc bb aa b9 bf
       -0.14762628245663428 -0.10026143420208218
000740 ab 16 0a 20 8a 0a 8d bf 66 17 02 fa 86 b6 a9 bf
       -0.01418025884892001 -0.05022069742066897
000750 61 9f 68 48 a6 24 6c bf 57 40 4a 95 62 ef a1 3f
       -0.0034354446136325855 0.03502948830021129
000760 f9 d5 63 18 2b 6e 80 bf eb a1 51 4d 0c c9 c1 bf
       -0.008022629434416994 -0.13894799971900737
000770 67 7d ec 7d 12 f3 ab bf 1d 5f 96 44 00 d8 c0 bf
       -0.05458886897235509 -0.13159182881349177
000780 38 30 ca b7 13 64 be 3f e2 5b d4 f8 11 e5 c6 bf
       0.11871455418639776 -0.17886566781882524
000790 da 48 f9 ce 22 d0 b0 bf 67 aa 6c 99 de cc c0 bf
       -0.06567590287275796 -0.13125212184361887
0007a0 b7 92 f9 71 f1 e6 92 3f 20 cf d3 ef c2 18 9e bf
       0.018459103185153505 -0.029391332519437374
0007b0 24 42 7e 69 09 81 65 3f e6 07 b1 fc 76 e6 b4 bf
       0.002625006087278574 -0.08164161366678932
0007c0 82 29 9f 55 85 93 af 3f f0 28 87 cb 54 55 b3 3f
       0.06167236967265223 0.07552080124802152
0007d0 b9 36 70 9b 62 45 b0 bf 67 69 d8 ee 81 c3 bb 3f
       -0.06355873389130808 0.10845195847688203
0007e0 5c 89 bb 0c 90 be 99 bf 90 c3 1b 12 2a 31 b0 3f
       -0.025141001488813472 0.06325018827534579
0007f0 90 44 c3 8b ea 8a ac bf db c5 64 62 d3 46 bf 3f
       -0.05574734645927848 0.12217446472347808

lstm1.bias_ih f8 [204]
000000 52 4a 99 48 e6 3d b4 3f 7d f7 f8 4c 7d 7e cd 3f
       0.07906951210433391 0.23042265184806957
000010 e9 cd 08 07 a7 8d a8 3f cf 09 9e be 82 2c ca 3f
       0.047955722435656 0.2044833594082562
000020 4b f7 42 68 56 d0 b2 3f 8e 3e 82 c7 eb e0 da 3f
       0.07349147839974284 0.4199780891731074
000030 89 30 61 13 f2 44 a0 3f 02 c1 43 c6 ea 65 c9 3f
       0.031776013246230646 0.19842276268855846
000040 32 fa ee 18 6a 74 d4 3f 2a ce 1f d8 46 aa c9 3f
       0.319605373715521 0.20050893357221017
000050 8b 76 7a 5a 08 52 c2 3f e0 ae 19 d1 9f 87 c4 3f
       0.14312843721284127 0.16038892469383992
000060 e6 50 2c 34 8d d3 e7 3f 70 81 63 40 b2 34 de 3f
       0.7445741671567958 0.4719663265987242
000070 fd cc ff fd 56 e5 c2 3f ed 85 6a aa c9 88 ca 3f
       0.14762389566713088 0.20729943104838303
000080 04 00 dd ab bc 0c da 3f 67 0b 51 90 72 b2 c4 3f
       0.4070274046280249 0.16169578596790332
000090 88 e6 dd 8a f2 61 e1 3f ae 29 77 a6 17 82 9f 3f
       0.5432064735643545 0.030769700560804907
0000a0 a7 91 1d 20 89 37 c8 3f d9 be 20 fd 4d dc c2 3f
       0.18919481342449027 0.14734816417466481
0000b0 31 55 a8 e4 be d9 b6 3f 23 6e 37 16 fa 2c be 3f
       0.08926003534755435 0.1178737930526315
0000c0 e1 3b 88 4e ba 16 90 3f 9c f2 46 79 40 e1 c5 3f
       0.01571169952699936 0.17093664094672512
0000d0 11 d0 fe 43 a6 3b d1 3f 59 2c 01 1b b8 55 82 3f
       0.2692657150284968 0.0089525588265557
0000e0 eb d6 1b d3 f5 03 e3 3f 0a dc e9 21 e1 53 82 bf
       0.5942334292619454 -0.0089490498041709
0000f0 da 42 d4 65 42 70 c3 3f 81 fe ab fc f9 73 cf 3f
       0.15186338398100113 0.2457268222569731
000100 3f af a3 b2 42 3e c8 3f fd fc 8c bf 80 ec ce 3f
       0.18940004084230996 0.24159249642432448
000110 9a ba 5b 7a 1a e6 cf 3f d1 84 58 d4 dd 60 ca 3f
       0.2492096993878093 0.20608113163419842
000120 74 78 d0 98 1e b0 b2 3f e1 b6 3b 9a 27 9d 8d 3f
       0.07299987059420393 0.01445990504677347
000130 4d 9f f2 07 f9 8f d7 3f 90 79 96 67 61 8c c2 3f
       0.368162400971859 0.14490907247541118
000140 39 35 1e 4e 81 59 d6 3f 0d 3f 2f 32 17 cf cd 3f
       0.3492129576560106 0.23288240385453954
000150 a7 58 73 4d f5 80 e9 3f 80 3e 30 88 f5 24 d1 3f
       0.796991969366691 0.2678808050122612
000160 dc 5d 9d 04 f0 af c8 3f a0 6f 16 a2 1d cf b2 3f
       0.19286918855026058 0.07347283560960571
000170 a4 f8 90 84 cb fe d5 3f 83 92 45 4f 0c 05 73 bf
       0.3436764521210398 -0.004643486103621644
000180 28 e6 2e f2 7d c3 d3 3f 92 74 84 c4 9c b8 c9 3f
       0.3088068833418185 0.20094642253471712
000190 34 c1 b5 cc 1b 11 ac 3f 4e 78 85 81 8f 22 bd 3f
       0.05481802820111384 0.11380860244887112
0001a0 8c 9c 47 b1 0c 1e 74 3f 13 87 83 dd fe 01 a5 3f
       0.004911470012735408 0.04103084997201569
0001b0 1e e5 d5 d4 06 da a2 bf 97 83 fb 0b 79 c2 a4 bf
       -0.03681966159906323 -0.04054621001501529
0001c0 5a e2 69 30 58 8a c4 3f af c9 82 38 bb 3b b2 bf
       0.16047193874307447 -0.07122392778072738
0001d0 89 29 fb 7b 82 a2 b0 bf 1e 32 0f fe ea 6b a4 bf
       -0.0649797012985457 -0.03988584853468445
0001e0 58 4c 08 2c 8c c5 ad 3f 30 74 da 5f 03 2a a8 3f
       0.05814779317383828 0.04719553513607655
0001f0 2d cf b1 1a a6 90 bf 3f b2 0a f8 e8 11 9d a9 3f
       0.12330091621134605 0.050026473702037846
000200 3f 62 94 0b 7b 17 c2 3f 9d cb 42 a5 86 1e c6 3f
       0.14134157243167242 0.17280657834416227
000210 19 e9 34 ad 17 e2 b9 3f 49 a1 3a f0 8a 1f af bf
       0.10110614756277804 -0.06078752691729734
000220 d8 a8 db d8 62 ba 9d bf ad 55 8c b3 a1 2b b4 3f
       -0.029031319128002803 0.07879076608181519
000230 26 8a 69 dd a3 75 af bf 7e 43 91 b1 5d 10 67 bf
       -0.06144439771448544 -0.002815421100003267
000240 1d f0 cb 5e 8f b3 a8 bf 32 47 16 2f da db a9 3f
       -0.04824493438897568 0.0505054647902753
000250 47 ca 9d 59 e5 98 b5 bf f9 4c ce c3 19 ef 8b 3f
       -0.08436425626659015 0.013639642036457721
000260 67 2d 4e 72 61 1d 83 3f 63 66 1f 27 3a 1b 83 3f
       0.009333382893393872 0.009329275435379708
000270 4a c9 68 8c 82 ff bc 3f f3 ab 83 0b 41 64 8b bf
       0.11327377250635098 -0.013374813236131522
000280 24 a2 4a 88 13 5a 6e bf b5 bc c8 a1 1c b9 8c bf
       -0.00370506110114756 -0.0140249478218649
000290 ee 4b 9b 61 dc c6 a6 3f 15 91 00 41 21 2f b3 bf
       0.04448593799101973 -0.07493789517372236
0002a0 9e 45 bb 42 bb a2 b3 bf 31 b8 c7 af b9 1e 8b bf
       -0.07670183543384332 -0.013242197682270614
0002b0 5b 92 9c bf 63 41 a9 3f dd d3 6e 7b 40 ce a9 bf
       0.04932700838097467 -0.05040170199155345
0002c0 d2 19 4e a5 a6 d0 ac 3f 0a 31 56 00 b2 44 bb 3f
       0.05627938049206062 0.10651695736141079
0002d0 6f 5c a3 af c7 e4 c8 3f d1 b9 2d 41 7c f8 a6 3f
       0.19448181224899794 0.0448645429195157
0002e0 c0 a0 86 87 eb 8f af 3f 7b 5c 1c d8 39 b3 c7 bf
       0.06164489774102 -0.18515704204830627
0002f0 b6 67 12 0b 4f 86 be 3f 38 28 e0 3d 15 06 89 bf
       0.1192368890791887 -0.01221863360480678
000300 de 2f 75 ac 91 f8 bc 3f 1f 7a 5c 5b 85 42 bb 3f
       0.11316786251444408 0.10648377876757607
000310 4c 5c 41 83 90 14 b0 bf 33 be b7 b6 7c b7 bb bf
       -0.06281378941035703 -0.10826854191668005
000320 74 11 9b b4 de 39 c0 3f 2d 34 04 61 82 19 b9 3f
       0.12676605051650436 0.09804549091877908
000330 09 57 a4 f1 9b 7d c8 3f 0e 2d fa 30 0a 21 c6 bf
       0.1913332872288083 -0.17288329497782978
000340 3d 06 be c2 8d 60 ca bf 57 06 2b 08 6e 04 b9 bf
       -0.2060715866937687 -0.09772384356895124
000350 9e bf 56 03 99 f8 c7 bf fc 75 37 40 b0 3d c9 3f
       -0.18727409995107974 0.19719508300379107
000360 27 56 9b f0 8d 2a ca bf 16 cc fe df c3 76 cc 3f
       -0.20442365883234112 0.2223744243361529
000370 6a 88 bb fa bf 01 cc bf 0a 68 30 10 44 90 a9 3f
       -0.21880340330887132 0.049928786255080196
000380 aa 81 5e 34 6a 6a ce 3f 50 d7 e5 1c a6 68 ca 3f
       0.23762252385223565 0.20631863032365994
000390 1b c6 ba c4 38 83 cc 3f 0c 8d 15 c5 d4 05 cb 3f
       0.2227545700639418 0.21111545203448434
0003a0 a6 fb c0 fa 72 97 c2 3f 2b be e7 bd a6 8b c4 3f
       0.14524686092223965 0.1605118205329615
0003b0 8b c6 88 32 6b d2 ce bf 85 9f da ee 0d 67 c0 3f
       -0.2407964703320896 0.12814497149269868
0003c0 d9 12 28 8b 98 48 c0 3f f8 b8 6e c4 8f 8e b0 3f
       0.12721545023682415 0.0646753172465856
0003d0 49 a8 30 fd a5 b5 ab 3f 0b 10 df 04 a8 c4 d0 bf
       0.05412024226855345 -0.2620029494830766
0003e0 e1 ce 65 60 46 aa a1 3f 9d 17 50 4a e5 a6 a3 3f
       0.03450221945504751 0.03838268787516983
0003f0 c3 0d 99 39 b4 b1 cc bf 6e 1f 53 43 0a 4b cc 3f
       -0.22417309582134068 0.2210400418027762
000400 42 92 b1 8e 95 4a ce bf 5b 76 f4 bb 5f 56 a1 3f
       -0.2366511294122962 0.03386210603114811
000410 d4 e2 fe e6 0d ee d0 bf 45 6a 87 17 1f da b7 3f
       -0.2645296817604905 0.09317201923787717
000420 d8 06 98 5d da 3a b0 3f 3f b4 88 3b 57 41 b1 bf
       0.0633980253697034 -0.06740327075449758
000430 18 93 32 64 0a 27 cc 3f ae 62 ca cf b2 b7 c2 bf
       0.21994142429789387 -0.14623103281043853
000440 4b 88 3c 96 8f c0 bf bf db cf ae 2c 2e 6a c6 bf
       -0.12403199594385332 -0.17511536771564704
000450 28 68 69 df f6 91 c2 3f ef d2 16 d8 50 c0 bd 3f
       0.14507947834755552 0.11621575618375933
000460 f7 f1 67 51 f4 3b b5 3f 79 6b 8b b6 ce f3 c3 bf
       0.08294608104183242 -0.15587791360197992
000470 75 75 7f aa c7 2f c7 3f 50 4b b3 07 d7 fe b0 bf
       0.18114562821476068 -0.06638854921338333
000480 25 4a 75 b6 7d 56 de 3f bb fe 8c 44 ec f5 b3 bf
       0.47402899568729345 -0.0779712359771975
000490 33 66 13 75 4b 5e cd bf 60 6f 7d c3 8f 03 c5 3f
       -0.2294401475581239 0.16417119069489683
0004a0 84 83 03 f2 bc e1 d1 3f 7b ad 02 5d 98 99 c0 3f
       0.27940295824196704 0.12968735257650707
0004b0 d2 ea d2 2b 5a ed a8 bf 98 81 d3 96 9d 5c cb 3f
       -0.04868585381469405 0.21376390327988015
0004c0 48 1e 65 f5 f3 41 ca bf 8a 08 79 b3 5b e4 c5 3f
       -0.20513772470643432 0.17103143943137794
0004d0 89 7a 81 95 db df c4 3f c3 d6 2d 5f 7f 7f b7 3f
       0.16308159637533873 0.09178920816142537
0004e0 2a b1 e1 f4 f7 b8 b8 3f 68 0e c0 8d bb 2a c7 3f
       0.0965723965507023 0.18099159642598583
0004f0 30 d9 27 ba d9 c4 d4 3f 7b ba 02 12 c9 07 c6 3f
       0.3245148008276315 0.17211259250094088
000500 9b c1 f3 38 19 65 b5 3f 04 62 c3 69 43 f5 c1 3f
       0.08357389107164297 0.14029734291285945
000510 76 66 9b eb 7a 81 c0 3f fc f0 a7 66 f6 71 d1 3f
       0.1289514208245241 0.27258071923257865
000520 1a 31 ee ff 68 97 ce 3f 9f 1d 40 85 09 35 e8 3f
       0.2389956712398849 0.7564742662952318
000530 2f 02 ea 65 18 76 da 3f 07 cf 45 a8 7b 3e b8 3f
       0.41345796539829655 0.09470341547222115
000540 04 06 54 d5 2c 22 b9 3f 5d 50 a0 ef 7c 38 cd 3f
       0.09817772110184114 0.22828637791156128
000550 83 40 c9 06 8c 21 d3 3f 43 30 42 80 a8 ba e0 3f
       0.2989225450774102 0.5227854256677421
000560 42 83 d7 2d aa 02 a6 bf 70 5f 36 9e df b0 ba 3f
       -0.04298908052056173 0.10426137554747839
000570 b2 d0 fd e7 ce 66 d4 3f 24 59 77 79 67 6c bc 3f
       0.31877491622368404 0.11102911677821631
000580 a2 94 bc 93 ef 29 b2 3f 41 84 d7 d2 9e 2b a5 3f
       0.07095239025928149 0.0413484222770042
000590 61 12 4b 7e 74 61 c3 3f 19 01 5c 4c ad ad ca 3f
       0.1514115921655899 0.20842519978032994
0005a0 cb 56 b5 c0 5e 94 a0 bf 3e eb f0 65 e5 84 e1 3f
       -0.03238197424313468 0.5474726668393044
0005b0 7d 58 b9 68 a9 52 c2 3f cd 7d d8 fd ce 30 a2 3f
       0.14314763654209975 0.03552862976743718
0005c0 da 1a db fd be 31 b1 3f 9a 57 10 ff 6d 6d c5 3f
       0.0671653146519974 0.16740202860154058
0005d0 9f 65 8f bf d0 91 72 3f fa 51 b0 1d 8d fa d1 3f
       0.004533591673827968 0.2809174337319572
0005e0 0e ae ec 14 c8 89 83 3f 47 01 f0 83 4d 8b cd 3f
       0.009540141237798696 0.23081368391286558
0005f0 9d 2f 7d 76 2b a0 95 3f 8d 37 6a 9d 99 1b d7 3f
       0.021118811709399322 0.36105957386541193
000600 c4 4d 7f e1 2c d5 cb 3f 4f fa ac 85 bd ed d6 3f
       0.2174430943547191 0.3582605176378921
000610 34 54 0f 82 94 7c c3 3f 3d b7 27 73 ba 55 e9 3f
       0.152239383226204 0.7917148827670882
000620 b5 4f 88 af f0 d9 d0 3f d3 6a 44 ef 98 85 cd 3f
       0.26330201284258276 0.2306395691201347
000630 77 df cc 6f 55 d0 ae 3f 82 93 32 d1 d3 7f dd 3f
       0.06018321027516909 0.4609269659943537
000640 be a5 f0 d9 0d 5c c8 3f d8 58 b5 d8 5d 6d d2 3f
       0.19030926839449863 0.28792520678451927
000650 df 94 f2 72 10 23 c8 3f 27 1a 9b 25 f4 ae 94 3f
       0.1885700761096478 0.02019864539649965

lstm1.bias_hh f8 [204]
000000 b9 94 32 51 53 c2 ac 3f bb 7b 7c 86 9e 58 d1 3f
       0.0561700855844633 0.27103388913559073
000010 e6 66 84 43 8d c0 b2 3f d7 09 9e 5e 63 1a c0 3f
       0.07325060747498532 0.12580530281054678
000020 a0 7b 21 a4 77 85 cd 3f 89 3e 82 7f 2b c8 d7 3f
       0.23063560022543772 0.37159240200069427
000030 34 98 b0 49 df 7c bb 3f 00 c1 43 e6 81 2d c3 3f
       0.1073741488367837 0.14982627623931677
000040 2e fa ee b8 b3 55 d6 3f 2c ce 1f 78 ac 66 c3 3f
       0.34898083743965713 0.15157085290376082
000050 51 3b 3d bd c9 d5 d4 3f c5 5d 33 42 49 9f b6 3f
       0.32554858665837566 0.08836801401354595
000060 e6 50 2c e4 be 53 e6 3f bc c0 31 38 94 c9 e2 3f
       0.697722860003094 0.5871068093820422
000070 06 cd ff 5d c9 fd cf 3f ed 85 6a aa de e6 ca 3f
       0.2499324521046235 0.2101705867872136
000080 07 00 dd 0b e2 7e de 3f 69 0b 51 b0 d1 c2 cb 3f
       0.476494323334919 0.2168829070015719
000090 1d cd bb 2d 11 0f dc 3f 79 ca 9d 09 77 71 bd 3f
       0.43841962305232746 0.11501258835577656
0000a0 48 23 3b 00 c9 b0 b4 3f 9a 7d 41 fa 01 c2 b1 3f
       0.08082252746238539 0.06936657294999407
0000b0 8b 54 a1 12 02 c4 93 3f ff b6 1b 4b 3a f9 cd 3f
       0.019302399050805035 0.23416832606692847
0000c0 77 07 d1 c9 74 4f cf 3f 3a e5 8d b2 b3 bb bb 3f
       0.24461231092760347 0.10833285435901
0000d0 87 00 ed bf e3 9b 9b 3f ba 12 b0 91 fc 2c c3 3f
       0.026961859311314142 0.14981038201962865
0000e0 e6 d6 1b 87 e5 bd e1 3f 51 62 e1 0d 31 56 c3 3f
       0.5544307364313823 0.15106785943750592
0000f0 d9 42 d4 e5 93 30 c2 3f 7f fe ab 7c 88 5f c8 3f
       0.1421074745380995 0.19041544044010902
000100 e3 0b c5 d5 d2 c1 88 bf 00 fd 8c bf a0 bf c6 3f
       -0.01208843912957564 0.1777230201059652
000110 9b ba 5b fa 3a 0d cb 3f 29 13 62 d1 5e b5 af 3f
       0.21134125923659472 0.06193062120386223
000120 e3 f0 a0 f1 b5 ff a4 3f 59 12 71 d9 d7 7e af bf
       0.04101341795510096 -0.061514611523794734
000130 48 9f f2 c7 ad fa d3 3f 8f 79 96 07 56 82 c5 3f
       0.3121752216925313 0.16804004068849251
000140 39 35 1e ce cd 62 d6 3f 19 7e 5e 04 ec 82 b3 3f
       0.3497805130835619 0.07621646029155506
000150 a8 58 73 8d 5b a8 ed 3f 6e 3e 30 38 29 54 d0 3f
       0.9268014681536174 0.2551367806163175
000160 dc 5d 9d a4 b1 c1 c7 3f ed 7c b3 10 93 8a 8b 3f
       0.18559856927707485 0.013447903582742582
000170 9a f8 90 6c ee 60 d2 3f 6b d3 85 1d 6f f0 c7 3f
       0.287166219732066 0.18702496472874527
000180 25 e6 2e 0a 73 6a d4 3f 3e d2 11 92 37 65 a9 3f
       0.31899715418294 0.04960034998012873
000190 29 ec a3 34 3f 15 6f bf 4f 78 85 81 0a 61 bc 3f
       -0.003794310997475421 0.1108557287420535
0001a0 df 3c 8a 15 aa aa c4 3f 13 87 83 dd bd 75 a4 3f
       0.16145826389081372 0.03996079758668549
0001b0 79 6b a8 ac a0 79 81 3f 0b 1f 01 cd 34 a4 c8 3f
       0.008532767552471775 0.1925111771581601
0001c0 ad c4 d3 20 f1 e8 b1 3f a2 26 0b e2 1f cd 9c bf
       0.06996066142507358 -0.028126238032916924
0001d0 76 d6 04 04 62 dd b3 3f 38 df 0c 1f ec 6d 6e 3f
       0.07759678457372296 0.003714524435419888
0001e0 dc d9 fb 69 05 46 b2 bf 10 9d f6 37 e0 4e c4 3f
       -0.07138093793387362 0.15865710003456757
0001f0 2d cf b1 9a 60 1f bc 3f 9d fa 83 ab 09 0c b4 bf
       0.10985378052447166 -0.0783086818446272
000200 8d c4 28 57 6b eb b5 3f 31 8c a6 57 59 cb 7a bf
       0.08562346342002254 -0.006541584962550793
000210 8b 74 9a 96 ce 8c c1 3f b8 5e c5 cf 4e e5 a4 3f
       0.137109588181293 0.04081198011652759
000220 94 2b 92 93 92 55 a3 3f e1 2a c6 39 dd 1e c1 3f
       0.037762241853747686 0.13375439949989867
000230 7c 62 5a a7 31 f2 c1 bf df f1 ba 39 e9 c8 43 3f
       -0.1402036730912818 0.0006037844463758177
000240 be 1f 68 42 f9 3b 9e 3f ca 91 c5 ab a9 89 c8 3f
       0.02952565639318982 0.19170113456051602
000250 bd 35 62 e6 32 bd b6 3f 9a c9 79 d8 ec c8 b2 3f
       0.08882444500542071 0.07337837491085111
000260 4a 3a b6 11 7b b5 b2 bf c9 ec e3 84 28 f5 b7 3f
       -0.07308167631547594 0.093584568447045
000270 44 25 a3 b1 aa fe 97 3f 00 15 1f 3d d9 fb ab 3f
       0.023432414142722693 0.05465582724677098
000280 10 51 25 c4 e3 6a 77 bf 32 74 e3 95 27 01 c8 3f
       -0.005717172347733404 0.1875352365376855
000290 ec d2 66 68 b9 bc c4 3f 7c 77 fb f7 e6 6c 8b 3f
       0.16200940702187638 0.013391308253115623
0002a0 00 d3 25 ea 27 60 82 3f ea 23 1c 28 7e 84 97 3f
       0.008972465355989723 0.022966357420077722
0002b0 2c 49 ce 9f 76 df b2 3f 15 96 48 a2 90 47 bc 3f
       0.0737222805167092 0.11046699487686625
0002c0 1e 9c e1 54 06 08 69 3f 76 18 2b 40 09 22 c5 3f
       0.003055584303229177 0.1651012004205687
0002d0 f8 b8 46 1f 58 e5 be 3f 69 6e 4b 50 77 9e c7 3f
       0.12068701518612446 0.18452350063931824
0002e0 3f 5f 79 78 c9 f8 ad bf 7d 5c 1c e8 37 da c0 bf
       -0.058538719135582166 -0.13165949662718282
0002f0 6d cf 24 96 83 c2 ad 3f 0b 0a 78 0f 1c ac a5 bf
       0.05812464912233293 -0.042328717125219205
000300 ed 97 3a 36 2c d4 c2 3f df 2e 1c 25 9e 10 8c bf
       0.14709999702353063 -0.013703570849905087
000310 59 47 7d 39 46 db a1 3f 6d 1c 84 94 fa 15 75 3f
       0.03487605525755439 0.005147913769412244
000320 ef 22 36 29 27 13 b0 3f a7 97 f7 7d 2d 90 ae bf
       0.06279225116862695 -0.05969373858151466
000330 12 ae 48 83 62 22 b1 3f 05 5a f4 41 b6 3b b7 bf
       0.06693092065022935 -0.09075488195626498
000340 8b 31 f0 15 8d b7 9b bf 56 06 2b 88 b7 a5 bc bf
       -0.027067379440312272 -0.11190363954940472
000350 46 7f ad c6 ed 37 b1 bf 0a bb 1b 70 38 85 d0 3f
       -0.06725965595751146 0.25813113163069146
000360 27 56 9b 10 0a 15 cc bf 38 98 fd bf 5e 31 b4 3f
       -0.2193920689666566 0.07887832820196727
000370 66 88 bb 1a e4 1e c8 bf 09 68 30 90 25 92 a7 3f
       -0.18844271951008124 0.046036886073309864
000380 a8 81 5e b4 51 e9 c3 3f 33 5d 97 33 ac 35 a3 3f
       0.1555578356465166 0.03751886491562075
000390 14 63 5d ea b5 54 d4 3f 76 c6 8a 62 a9 03 d6 3f
       0.31767032515703986 0.34397348998309185
0003a0 43 f7 81 f5 10 76 b8 3f 2b be e7 3d 78 d3 c5 3f
       0.09555154794540237 0.1705160429259974
0003b0 8b c6 88 32 b3 3d c4 bf 36 7e 6a bb b1 09 a3 3f
       -0.15813293426031225 0.03718333637993647
0003c0 dc 12 28 4b f9 64 c1 3f f3 b8 6e e4 ed d5 b4 3f
       0.13589397592308827 0.08138930155721251
0003d0 0b 2a 4c cf 32 9d c8 3f 43 40 7c 53 ae 25 be bf
       0.19229731676053094 -0.11776246584145249
0003e0 bb 73 19 88 6f d4 c9 3f 21 fa 6b cd 2b 07 cb bf
       0.20179552216987226 -0.21115634470329872
0003f0 c8 0d 99 c9 11 f9 c1 bf 6f 1f 53 23 60 75 c5 3f
       -0.1404134973873694 0.1676445171817664
000400 e6 48 c6 ba c2 8d ab bf 6e e2 02 f1 2e 30 c9 bf
       -0.05381592302286879 -0.19678293960693644
000410 d6 e2 fe 86 83 ac d0 bf 38 b5 c3 ab 9d c6 c9 3f
       -0.26052940543335745 0.20137377631128017
000420 71 03 cc 5e ab 28 ca 3f 17 5a c4 fd 13 06 c5 bf
       0.20436613205677248 -0.1642479886147192
000430 7b 4c ca 50 c2 ee ad 3f 59 c5 94 df 83 9f be bf
       0.05846221195420128 -0.11962150772594295
000440 4b 88 3c d6 96 6a bf bf b9 9f 5d b9 59 11 be bf
       -0.12272017221815294 -0.11745224738626704
000450 23 68 69 3f fb 88 c7 3f e3 a5 2d 70 c5 1e a1 3f
       0.18386784168507217 0.033437890952722225
000460 00 f9 b3 78 1d 75 ce 3f f5 d6 16 4d 7d 89 b2 bf
       0.2379490699167448 -0.07241042263089155
000470 76 75 7f 2a 12 10 c8 3f 48 4b b3 47 db 16 b0 bf
       0.18799044680683225 -0.06284876347062351
000480 34 4a 75 1e fd 0c d1 3f 46 7f 46 f2 df 37 cd bf
       0.26641777014188794 -0.22826766328670994
000490 35 66 13 65 bf 95 c8 bf 61 6f 7d 03 04 f1 cc 3f
       -0.19206993518200624 0.22610521479043214
0004a0 0b 07 07 c4 a7 2a c1 3f 72 ad 02 1d 01 68 c5 3f
       0.13411423751500026 0.16723646084333726
0004b0 aa ba f4 ca bd 9b c4 bf ad 0c 9c b6 dc 3e 99 3f
       -0.16100284967383988 0.024653862615207234
0004c0 48 1e 65 a5 f6 30 c7 bf 03 11 f2 a6 17 e5 bb 3f
       -0.181181746253275 0.10896442247218734
0004d0 4f bd c0 2a 31 21 d1 3f bc d6 2d 9f 64 73 b2 3f
       0.2676508824833563 0.07207325826842753
0004e0 41 62 c3 29 9e 45 a6 3f 45 cc 01 b8 f1 47 73 3f
       0.04349989185147197 0.0047072832240813755
0004f0 60 b2 4f 74 5f fa ca 3f 89 a7 2b 20 0a ce 86 3f
       0.21076577357543425 0.011135176760450853
000500 36 83 e7 b1 17 33 a2 3f 01 62 c3 79 98 d3 c7 3f
       0.035546055285300346 0.18614488549680178
000510 f8 cc 36 f7 f6 c1 b1 3f 06 e2 4f 6d f2 3e c5 3f
       0.06936591659068714 0.16598348939420776
000520 28 31 ee 5f 38 f7 c0 3f 9a 1d 40 15 c4 4c e1 3f
       0.1325445621881809 0.5406208434150586
000530 11 01 f5 ba 19 b4 e4 3f 81 e7 22 34 d6 c2 c9 3f
       0.6469849254135928 0.20125844522209138
000540 03 06 54 95 63 8f b4 3f 2a 28 d0 6f d6 7f d0 3f
       0.08031294246395508 0.2578025905537539
000550 8a 40 c9 26 13 cf d0 3f 7e 60 84 68 42 08 da 3f
       0.26263884341916166 0.4067541142153529
000560 33 1f 8a 54 ee dd c1 3f d2 2f 1b 8f 47 8f c0 3f
       0.13958529594332844 0.1293725441704497
000570 4f a1 fb ef 72 41 c4 3f 8e ac bb 7c e7 10 c9 3f
       0.15824734418789396 0.19582837667926295
000580 61 4a de e9 c5 75 c7 3f 09 e1 b5 14 51 ae c3 3f
       0.1832816497740906 0.1537572241902654
000590 63 12 4b 3e ab 53 c9 3f 8d 00 2e 96 88 11 d0 3f
       0.19786587278044285 0.25107016244874886
0005a0 a5 ad 6a 81 53 99 9a bf 35 eb f0 3d 9b 14 e8 3f
       -0.02597551801106381 0.7525154313837904
0005b0 e5 9d 1a dd dc 47 a7 bf d5 3e ec 7e 6d 53 b1 3f
       -0.045470144262534075 0.06767925594999309
0005c0 de 1a db 7d 3f b7 b3 3f 9a 57 10 7f 52 af c7 3f
       0.0770148927941636 0.18503791050232793
0005d0 58 f6 f8 cb 5b 46 b1 3f 03 a4 60 bb 2b da ca 3f
       0.0674798367481001 0.20978304528514977
0005e0 c8 95 9d 82 b0 67 bc 3f 48 01 f0 a3 51 31 c9 3f
       0.11095717610222444 0.196817593619935
0005f0 9c 2f 7d 76 6f f3 9b 3f 98 37 6a b5 f7 79 d0 3f
       0.027295819861407375 0.2574443122510899
000600 f5 36 fd 45 e6 91 a1 3f aa f4 59 cb f3 32 cc 3f
       0.03431624988898633 0.22030494145648066
000610 35 54 0f 02 29 b5 cf 3f 3b b7 27 fb a0 8e ed 3f
       0.24771607018070232 0.923660746133215
000620 6e 9f 10 7f d3 ae c5 3f cd 6a 44 4f 6a a7 c7 3f
       0.16939777092306535 0.18479660864325922
000630 e1 37 f3 6b 91 f3 c8 3f c7 49 99 78 d9 2f e2 3f
       0.19493310709952907 0.5683410029835664
000640 f0 96 c2 a7 e9 87 aa 3f 85 b1 6a 21 e0 ea c5 3f
       0.05181818173268293 0.17123033172300609
000650 da 94 f2 72 8c c4 c3 3f c7 cb c9 b4 32 ab 85 bf
       0.15443568813967695 -0.010580440656871816
